…
rget_lang': 'en', 'moses_no_dash_splits': False, 'moses_no_escape': False}, 'ema': {'_name': None, 'store_ema': False, 'ema_decay': 0.9999, 'ema_start_update': 0, 'ema_seed_model': None, 'ema_update_freq': 1, 'ema_fp32': False}, 'simul_type': None}
Loading codes from /root/cs4650-final-project/wmt19.en/bpecodes ...
Read 30000 codes from the codes file.
2022-04-21 16:45:16 | INFO | fairseq_cli.train | Swapped decoder from language model
2022-04-21 16:45:16 | INFO | fairseq_cli.train | TransformerModel(
  (encoder): TransformerEncoderBase(
    (dropout_module): FairseqDropout()
    (embed_tokens): Embedding(33552, 512, padding_idx=1)
    (embed_positions): SinusoidalPositionalEmbedding()
    (layers): ModuleList(
      (0): TransformerEncoderLayerBase(
        (self_attn): MultiheadAttention(
          (dropout_module): FairseqDropout()
          (k_proj): Linear(in_features=512, out_features=512, bias=True)
          (v_proj): Linear(in_features=512, out_features=512, bias=True)
          (q_proj): Linear(in_features=512, out_features=512, bias=True)
          (out_proj): Linear(in_features=512, out_features=512, bias=True)
        )
        (self_attn_layer_norm): LayerNorm((512,), eps=1e-05, elementwise_affine=True)
        (dropout_module): FairseqDropout()
        (activation_dropout_module): FairseqDropout()
        (fc1): Linear(in_features=512, out_features=1024, bias=True)
        (fc2): Linear(in_features=1024, out_features=512, bias=True)
        (final_layer_norm): LayerNorm((512,), eps=1e-05, elementwise_affine=True)
      )
      (1): TransformerEncoderLayerBase(
        (self_attn): MultiheadAttention(
          (dropout_module): FairseqDropout()
          (k_proj): Linear(in_features=512, out_features=512, bias=True)
          (v_proj): Linear(in_features=512, out_features=512, bias=True)
          (q_proj): Linear(in_features=512, out_features=512, bias=True)
          (out_proj): Linear(in_features=512, out_features=512, bias=True)
        )
        (self_attn_layer_norm): LayerNorm((512,), eps=1e-05, elementwise_affine=True)
        (dropout_module): FairseqDropout()
        (activation_dropout_module): FairseqDropout()
        (fc1): Linear(in_features=512, out_features=1024, bias=True)
        (fc2): Linear(in_features=1024, out_features=512, bias=True)
        (final_layer_norm): LayerNorm((512,), eps=1e-05, elementwise_affine=True)
      )
      (2): TransformerEncoderLayerBase(
        (self_attn): MultiheadAttention(
          (dropout_module): FairseqDropout()
          (k_proj): Linear(in_features=512, out_features=512, bias=True)
          (v_proj): Linear(in_features=512, out_features=512, bias=True)
          (q_proj): Linear(in_features=512, out_features=512, bias=True)
          (out_proj): Linear(in_features=512, out_features=512, bias=True)
        )
        (self_attn_layer_norm): LayerNorm((512,), eps=1e-05, elementwise_affine=True)
        (dropout_module): FairseqDropout()
        (activation_dropout_module): FairseqDropout()
        (fc1): Linear(in_features=512, out_features=1024, bias=True)
        (fc2): Linear(in_features=1024, out_features=512, bias=True)
        (final_layer_norm): LayerNorm((512,), eps=1e-05, elementwise_affine=True)
      )
      (3): TransformerEncoderLayerBase(
        (self_attn): MultiheadAttention(
          (dropout_module): FairseqDropout()
          (k_proj): Linear(in_features=512, out_features=512, bias=True)
          (v_proj): Linear(in_features=512, out_features=512, bias=True)
          (q_proj): Linear(in_features=512, out_features=512, bias=True)
          (out_proj): Linear(in_features=512, out_features=512, bias=True)
        )
        (self_attn_layer_norm): LayerNorm((512,), eps=1e-05, elementwise_affine=True)
        (dropout_module): FairseqDropout()
        (activation_dropout_module): FairseqDropout()
        (fc1): Linear(in_features=512, out_features=1024, bias=True)
        (fc2): Linear(in_features=1024, out_features=512, bias=True)
        (final_layer_norm): LayerNorm((512,), eps=1e-05, elementwise_affine=True)
      )
      (4): TransformerEncoderLayerBase(
        (self_attn): MultiheadAttention(
          (dropout_module): FairseqDropout()
          (k_proj): Linear(in_features=512, out_features=512, bias=True)
          (v_proj): Linear(in_features=512, out_features=512, bias=True)
          (q_proj): Linear(in_features=512, out_features=512, bias=True)
          (out_proj): Linear(in_features=512, out_features=512, bias=True)
        )
        (self_attn_layer_norm): LayerNorm((512,), eps=1e-05, elementwise_affine=True)
        (dropout_module): FairseqDropout()
        (activation_dropout_module): FairseqDropout()
        (fc1): Linear(in_features=512, out_features=1024, bias=True)
        (fc2): Linear(in_features=1024, out_features=512, bias=True)
        (final_layer_norm): LayerNorm((512,), eps=1e-05, elementwise_affine=True)
      )
      (5): TransformerEncoderLayerBase(
        (self_attn): MultiheadAttention(
          (dropout_module): FairseqDropout()
          (k_proj): Linear(in_features=512, out_features=512, bias=True)
          (v_proj): Linear(in_features=512, out_features=512, bias=True)
          (q_proj): Linear(in_features=512, out_features=512, bias=True)
          (out_proj): Linear(in_features=512, out_features=512, bias=True)
        )
        (self_attn_layer_norm): LayerNorm((512,), eps=1e-05, elementwise_affine=True)
        (dropout_module): FairseqDropout()
        (activation_dropout_module): FairseqDropout()
        (fc1): Linear(in_features=512, out_features=1024, bias=True)
        (fc2): Linear(in_features=1024, out_features=512, bias=True)
        (final_layer_norm): LayerNorm((512,), eps=1e-05, elementwise_affine=True)
      )
    )
  )
  (decoder): TransformerDecoder(
    (dropout_module): FairseqDropout()
    (embed_tokens): Embedding(42022, 1024, padding_idx=1)
    (project_in_dim): Linear(in_features=1024, out_features=1536, bias=False)
    (embed_positions): SinusoidalPositionalEmbedding()
    (layers): ModuleList(
      (0): TransformerDecoderLayerBase(
        (dropout_module): FairseqDropout()
        (self_attn): MultiheadAttention(
          (dropout_module): FairseqDropout()
          (k_proj): Linear(in_features=1536, out_features=1536, bias=True)
          (v_proj): Linear(in_features=1536, out_features=1536, bias=True)
          (q_proj): Linear(in_features=1536, out_features=1536, bias=True)
          (out_proj): Linear(in_features=1536, out_features=1536, bias=True)
        )
        (activation_dropout_module): FairseqDropout()
        (self_attn_layer_norm): LayerNorm((1536,), eps=1e-05, elementwise_affine=True)
        (fc1): Linear(in_features=1536, out_features=6144, bias=True)
        (fc2): Linear(in_features=6144, out_features=1536, bias=True)
        (final_layer_norm): LayerNorm((1536,), eps=1e-05, elementwise_affine=True)
      )
      (1): TransformerDecoderLayerBase(
        (dropout_module): FairseqDropout()
        (self_attn): MultiheadAttention(
          (dropout_module): FairseqDropout()
          (k_proj): Linear(in_features=1536, out_features=1536, bias=True)
          (v_proj): Linear(in_features=1536, out_features=1536, bias=True)
          (q_proj): Linear(in_features=1536, out_features=1536, bias=True)
          (out_proj): Linear(in_features=1536, out_features=1536, bias=True)
        )
        (activation_dropout_module): FairseqDropout()
        (self_attn_layer_norm): LayerNorm((1536,), eps=1e-05, elementwise_affine=True)
        (fc1): Linear(in_features=1536, out_features=6144, bias=True)
        (fc2): Linear(in_features=6144, out_features=1536, bias=True)
        (final_layer_norm): LayerNorm((1536,), eps=1e-05, elementwise_affine=True)
      )
      (2): TransformerDecoderLayerBase(
        (dropout_module): FairseqDropout()
        (self_attn): MultiheadAttention(
          (dropout_module): FairseqDropout()
          (k_proj): Linear(in_features=1536, out_features=1536, bias=True)
          (v_proj): Linear(in_features=1536, out_features=1536, bias=True)
          (q_proj): Linear(in_features=1536, out_features=1536, bias=True)
          (out_proj): Linear(in_features=1536, out_features=1536, bias=True)
        )
        (activation_dropout_module): FairseqDropout()
        (self_attn_layer_norm): LayerNorm((1536,), eps=1e-05, elementwise_affine=True)
        (fc1): Linear(in_features=1536, out_features=6144, bias=True)
        (fc2): Linear(in_features=6144, out_features=1536, bias=True)
        (final_layer_norm): LayerNorm((1536,), eps=1e-05, elementwise_affine=True)
      )
      (3): TransformerDecoderLayerBase(
        (dropout_module): FairseqDropout()
        (self_attn): MultiheadAttention(
          (dropout_module): FairseqDropout()
          (k_proj): Linear(in_features=1536, out_features=1536, bias=True)
          (v_proj): Linear(in_features=1536, out_features=1536, bias=True)
          (q_proj): Linear(in_features=1536, out_features=1536, bias=True)
          (out_proj): Linear(in_features=1536, out_features=1536, bias=True)
        )
        (activation_dropout_module): FairseqDropout()
        (self_attn_layer_norm): LayerNorm((1536,), eps=1e-05, elementwise_affine=True)
        (fc1): Linear(in_features=1536, out_features=6144, bias=True)
        (fc2): Linear(in_features=6144, out_features=1536, bias=True)
        (final_layer_norm): LayerNorm((1536,), eps=1e-05, elementwise_affine=True)
      )
      (4): TransformerDecoderLayerBase(
        (dropout_module): FairseqDropout()
        (self_attn): MultiheadAttention(
          (dropout_module): FairseqDropout()
          (k_proj): Linear(in_features=1536, out_features=1536, bias=True)
          (v_proj): Linear(in_features=1536, out_features=1536, bias=True)
          (q_proj): Linear(in_features=1536, out_features=1536, bias=True)
          (out_proj): Linear(in_features=1536, out_features=1536, bias=True)
        )
        (activation_dropout_module): FairseqDropout()
        (self_attn_layer_norm): LayerNorm((1536,), eps=1e-05, elementwise_affine=True)
        (fc1): Linear(in_features=1536, out_features=6144, bias=True)
        (fc2): Linear(in_features=6144, out_features=1536, bias=True)
        (final_layer_norm): LayerNorm((1536,), eps=1e-05, elementwise_affine=True)
      )
      (5): TransformerDecoderLayerBase(
        (dropout_module): FairseqDropout()
        (self_attn): MultiheadAttention(
          (dropout_module): FairseqDropout()
          (k_proj): Linear(in_features=1536, out_features=1536, bias=True)
          (v_proj): Linear(in_features=1536, out_features=1536, bias=True)
          (q_proj): Linear(in_features=1536, out_features=1536, bias=True)
          (out_proj): Linear(in_features=1536, out_features=1536, bias=True)
        )
        (activation_dropout_module): FairseqDropout()
        (self_attn_layer_norm): LayerNorm((1536,), eps=1e-05, elementwise_affine=True)
        (fc1): Linear(in_features=1536, out_features=6144, bias=True)
        (fc2): Linear(in_features=6144, out_features=1536, bias=True)
        (final_layer_norm): LayerNorm((1536,), eps=1e-05, elementwise_affine=True)
      )
      (6): TransformerDecoderLayerBase(
        (dropout_module): FairseqDropout()
        (self_attn): MultiheadAttention(
          (dropout_module): FairseqDropout()
          (k_proj): Linear(in_features=1536, out_features=1536, bias=True)
          (v_proj): Linear(in_features=1536, out_features=1536, bias=True)
          (q_proj): Linear(in_features=1536, out_features=1536, bias=True)
          (out_proj): Linear(in_features=1536, out_features=1536, bias=True)
        )
        (activation_dropout_module): FairseqDropout()
        (self_attn_layer_norm): LayerNorm((1536,), eps=1e-05, elementwise_affine=True)
        (fc1): Linear(in_features=1536, out_features=6144, bias=True)
        (fc2): Linear(in_features=6144, out_features=1536, bias=True)
        (final_layer_norm): LayerNorm((1536,), eps=1e-05, elementwise_affine=True)
      )
      (7): TransformerDecoderLayerBase(
        (dropout_module): FairseqDropout()
        (self_attn): MultiheadAttention(
          (dropout_module): FairseqDropout()
          (k_proj): Linear(in_features=1536, out_features=1536, bias=True)
          (v_proj): Linear(in_features=1536, out_features=1536, bias=True)
          (q_proj): Linear(in_features=1536, out_features=1536, bias=True)
          (out_proj): Linear(in_features=1536, out_features=1536, bias=True)
        )
        (activation_dropout_module): FairseqDropout()
        (self_attn_layer_norm): LayerNorm((1536,), eps=1e-05, elementwise_affine=True)
        (fc1): Linear(in_features=1536, out_features=6144, bias=True)
        (fc2): Linear(in_features=6144, out_features=1536, bias=True)
        (final_layer_norm): LayerNorm((1536,), eps=1e-05, elementwise_affine=True)
      )
      (8): TransformerDecoderLayerBase(
        (dropout_module): FairseqDropout()
        (self_attn): MultiheadAttention(
          (dropout_module): FairseqDropout()
          (k_proj): Linear(in_features=1536, out_features=1536, bias=True)
          (v_proj): Linear(in_features=1536, out_features=1536, bias=True)
          (q_proj): Linear(in_features=1536, out_features=1536, bias=True)
          (out_proj): Linear(in_features=1536, out_features=1536, bias=True)
        )
        (activation_dropout_module): FairseqDropout()
        (self_attn_layer_norm): LayerNorm((1536,), eps=1e-05, elementwise_affine=True)
        (fc1): Linear(in_features=1536, out_features=6144, bias=True)
        (fc2): Linear(in_features=6144, out_features=1536, bias=True)
        (final_layer_norm): LayerNorm((1536,), eps=1e-05, elementwise_affine=True)
      )
      (9): TransformerDecoderLayerBase(
        (dropout_module): FairseqDropout()
        (self_attn): MultiheadAttention(
          (dropout_module): FairseqDropout()
          (k_proj): Linear(in_features=1536, out_features=1536, bias=True)
          (v_proj): Linear(in_features=1536, out_features=1536, bias=True)
          (q_proj): Linear(in_features=1536, out_features=1536, bias=True)
          (out_proj): Linear(in_features=1536, out_features=1536, bias=True)
        )
        (activation_dropout_module): FairseqDropout()
        (self_attn_layer_norm): LayerNorm((1536,), eps=1e-05, elementwise_affine=True)
        (fc1): Linear(in_features=1536, out_features=6144, bias=True)
        (fc2): Linear(in_features=6144, out_features=1536, bias=True)
        (final_layer_norm): LayerNorm((1536,), eps=1e-05, elementwise_affine=True)
      )
      (10): TransformerDecoderLayerBase(
        (dropout_module): FairseqDropout()
        (self_attn): MultiheadAttention(
          (dropout_module): FairseqDropout()
          (k_proj): Linear(in_features=1536, out_features=1536, bias=True)
          (v_proj): Linear(in_features=1536, out_features=1536, bias=True)
          (q_proj): Linear(in_features=1536, out_features=1536, bias=True)
          (out_proj): Linear(in_features=1536, out_features=1536, bias=True)
        )
        (activation_dropout_module): FairseqDropout()
        (self_attn_layer_norm): LayerNorm((1536,), eps=1e-05, elementwise_affine=True)
        (fc1): Linear(in_features=1536, out_features=6144, bias=True)
        (fc2): Linear(in_features=6144, out_features=1536, bias=True)
        (final_layer_norm): LayerNorm((1536,), eps=1e-05, elementwise_affine=True)
      )
      (11): TransformerDecoderLayerBase(
        (dropout_module): FairseqDropout()
        (self_attn): MultiheadAttention(
          (dropout_module): FairseqDropout()
          (k_proj): Linear(in_features=1536, out_features=1536, bias=True)
          (v_proj): Linear(in_features=1536, out_features=1536, bias=True)
          (q_proj): Linear(in_features=1536, out_features=1536, bias=True)
          (out_proj): Linear(in_features=1536, out_features=1536, bias=True)
        )
        (activation_dropout_module): FairseqDropout()
        (self_attn_layer_norm): LayerNorm((1536,), eps=1e-05, elementwise_affine=True)
        (fc1): Linear(in_features=1536, out_features=6144, bias=True)
        (fc2): Linear(in_features=6144, out_features=1536, bias=True)
        (final_layer_norm): LayerNorm((1536,), eps=1e-05, elementwise_affine=True)
      )
      (12): TransformerDecoderLayerBase(
        (dropout_module): FairseqDropout()
        (self_attn): MultiheadAttention(
          (dropout_module): FairseqDropout()
          (k_proj): Linear(in_features=1536, out_features=1536, bias=True)
          (v_proj): Linear(in_features=1536, out_features=1536, bias=True)
          (q_proj): Linear(in_features=1536, out_features=1536, bias=True)
          (out_proj): Linear(in_features=1536, out_features=1536, bias=True)
        )
        (activation_dropout_module): FairseqDropout()
        (self_attn_layer_norm): LayerNorm((1536,), eps=1e-05, elementwise_affine=True)
        (fc1): Linear(in_features=1536, out_features=6144, bias=True)
        (fc2): Linear(in_features=6144, out_features=1536, bias=True)
        (final_layer_norm): LayerNorm((1536,), eps=1e-05, elementwise_affine=True)
      )
      (13): TransformerDecoderLayerBase(
        (dropout_module): FairseqDropout()
        (self_attn): MultiheadAttention(
          (dropout_module): FairseqDropout()
          (k_proj): Linear(in_features=1536, out_features=1536, bias=True)
          (v_proj): Linear(in_features=1536, out_features=1536, bias=True)
          (q_proj): Linear(in_features=1536, out_features=1536, bias=True)
          (out_proj): Linear(in_features=1536, out_features=1536, bias=True)
        )
        (activation_dropout_module): FairseqDropout()
        (self_attn_layer_norm): LayerNorm((1536,), eps=1e-05, elementwise_affine=True)
        (fc1): Linear(in_features=1536, out_features=6144, bias=True)
        (fc2): Linear(in_features=6144, out_features=1536, bias=True)
        (final_layer_norm): LayerNorm((1536,), eps=1e-05, elementwise_affine=True)
      )
      (14): TransformerDecoderLayerBase(
        (dropout_module): FairseqDropout()
        (self_attn): MultiheadAttention(
          (dropout_module): FairseqDropout()
          (k_proj): Linear(in_features=1536, out_features=1536, bias=True)
          (v_proj): Linear(in_features=1536, out_features=1536, bias=True)
          (q_proj): Linear(in_features=1536, out_features=1536, bias=True)
          (out_proj): Linear(in_features=1536, out_features=1536, bias=True)
        )
        (activation_dropout_module): FairseqDropout()
        (self_attn_layer_norm): LayerNorm((1536,), eps=1e-05, elementwise_affine=True)
        (fc1): Linear(in_features=1536, out_features=6144, bias=True)
        (fc2): Linear(in_features=6144, out_features=1536, bias=True)
        (final_layer_norm): LayerNorm((1536,), eps=1e-05, elementwise_affine=True)
      )
      (15): TransformerDecoderLayerBase(
        (dropout_module): FairseqDropout()
        (self_attn): MultiheadAttention(
          (dropout_module): FairseqDropout()
          (k_proj): Linear(in_features=1536, out_features=1536, bias=True)
          (v_proj): Linear(in_features=1536, out_features=1536, bias=True)
          (q_proj): Linear(in_features=1536, out_features=1536, bias=True)
          (out_proj): Linear(in_features=1536, out_features=1536, bias=True)
        )
        (activation_dropout_module): FairseqDropout()
        (self_attn_layer_norm): LayerNorm((1536,), eps=1e-05, elementwise_affine=True)
        (fc1): Linear(in_features=1536, out_features=6144, bias=True)
        (fc2): Linear(in_features=6144, out_features=1536, bias=True)
        (final_layer_norm): LayerNorm((1536,), eps=1e-05, elementwise_affine=True)
      )
      (16): TransformerDecoderLayerBase(
        (dropout_module): FairseqDropout()
        (self_attn): MultiheadAttention(
          (dropout_module): FairseqDropout()
          (k_proj): Linear(in_features=1536, out_features=1536, bias=True)
          (v_proj): Linear(in_features=1536, out_features=1536, bias=True)
          (q_proj): Linear(in_features=1536, out_features=1536, bias=True)
          (out_proj): Linear(in_features=1536, out_features=1536, bias=True)
        )
        (activation_dropout_module): FairseqDropout()
        (self_attn_layer_norm): LayerNorm((1536,), eps=1e-05, elementwise_affine=True)
        (fc1): Linear(in_features=1536, out_features=6144, bias=True)
        (fc2): Linear(in_features=6144, out_features=1536, bias=True)
        (final_layer_norm): LayerNorm((1536,), eps=1e-05, elementwise_affine=True)
      )
      (17): TransformerDecoderLayerBase(
        (dropout_module): FairseqDropout()
        (self_attn): MultiheadAttention(
          (dropout_module): FairseqDropout()
          (k_proj): Linear(in_features=1536, out_features=1536, bias=True)
          (v_proj): Linear(in_features=1536, out_features=1536, bias=True)
          (q_proj): Linear(in_features=1536, out_features=1536, bias=True)
          (out_proj): Linear(in_features=1536, out_features=1536, bias=True)
        )
        (activation_dropout_module): FairseqDropout()
        (self_attn_layer_norm): LayerNorm((1536,), eps=1e-05, elementwise_affine=True)
        (fc1): Linear(in_features=1536, out_features=6144, bias=True)
        (fc2): Linear(in_features=6144, out_features=1536, bias=True)
        (final_layer_norm): LayerNorm((1536,), eps=1e-05, elementwise_affine=True)
      )
      (18): TransformerDecoderLayerBase(
        (dropout_module): FairseqDropout()
        (self_attn): MultiheadAttention(
          (dropout_module): FairseqDropout()
          (k_proj): Linear(in_features=1536, out_features=1536, bias=True)
          (v_proj): Linear(in_features=1536, out_features=1536, bias=True)
          (q_proj): Linear(in_features=1536, out_features=1536, bias=True)
          (out_proj): Linear(in_features=1536, out_features=1536, bias=True)
        )
        (activation_dropout_module): FairseqDropout()
        (self_attn_layer_norm): LayerNorm((1536,), eps=1e-05, elementwise_affine=True)
        (fc1): Linear(in_features=1536, out_features=6144, bias=True)
        (fc2): Linear(in_features=6144, out_features=1536, bias=True)
        (final_layer_norm): LayerNorm((1536,), eps=1e-05, elementwise_affine=True)
      )
      (19): TransformerDecoderLayerBase(
        (dropout_module): FairseqDropout()
        (self_attn): MultiheadAttention(
          (dropout_module): FairseqDropout()
          (k_proj): Linear(in_features=1536, out_features=1536, bias=True)
          (v_proj): Linear(in_features=1536, out_features=1536, bias=True)
          (q_proj): Linear(in_features=1536, out_features=1536, bias=True)
          (out_proj): Linear(in_features=1536, out_features=1536, bias=True)
        )
        (activation_dropout_module): FairseqDropout()
        (self_attn_layer_norm): LayerNorm((1536,), eps=1e-05, elementwise_affine=True)
        (fc1): Linear(in_features=1536, out_features=6144, bias=True)
        (fc2): Linear(in_features=6144, out_features=1536, bias=True)
        (final_layer_norm): LayerNorm((1536,), eps=1e-05, elementwise_affine=True)
      )
    )
    (project_out_dim): Linear(in_features=1536, out_features=1024, bias=False)
    (output_projection): Linear(in_features=1024, out_features=42022, bias=False)
  )
)
2022-04-21 16:45:16 | INFO | fairseq_cli.train | task: TranslationTask
2022-04-21 16:45:16 | INFO | fairseq_cli.train | model: TransformerModel
2022-04-21 16:45:16 | INFO | fairseq_cli.train | criterion: LabelSmoothedCrossEntropyCriterion
2022-04-21 16:45:16 | INFO | fairseq_cli.train | num. shared model params: 685,632,512 (num. trained: 685,632,512)
…
